…
D:\cygwin64\home\trule\Notebook\LML\RNN-Seq2Seq\attention.py:151: UserWarning: Update your `Model` call to the Keras 2 API: `Model(inputs=[<tf.Tenso..., outputs=[<tf.Tenso...)`
  decoder_model = Model(input=[encoder_outputs_as_input, decoder_single_input, initial_s_input, initial_c_input], output=[decoder_single_output, decoder_single_h, decoder_single_c])
__________________________________________________________________________________________________
Layer (type)                    Output Shape         Param #     Connected to
==================================================================================================
EncoderInput (InputLayer)       (None, 32)           0
__________________________________________________________________________________________________
EncoderEmbedding (Embedding)    (None, 32, 100)      274300      EncoderInput[0][0]
__________________________________________________________________________________________________
DecoderHiddenState (InputLayer) (None, 256)          0
__________________________________________________________________________________________________
EncoderBiRnn (Bidirectional)    (None, 32, 512)      733184      EncoderEmbedding[0][0]
__________________________________________________________________________________________________
AttentionRepeat (RepeatVector)  (None, 32, 256)      0           DecoderHiddenState[0][0]
                                                                 cu_dnnlstm_2[0][1]
                                                                 cu_dnnlstm_2[1][1]
                                                                 cu_dnnlstm_2[2][1]
                                                                 cu_dnnlstm_2[3][1]
                                                                 cu_dnnlstm_2[4][1]
…
                                                                 concatenate_1[38][0]
                                                                 cu_dnnlstm_2[37][1]
                                                                 cu_dnnlstm_2[37][2]
                                                                 concatenate_1[39][0]
                                                                 cu_dnnlstm_2[38][1]
                                                                 cu_dnnlstm_2[38][2]
__________________________________________________________________________________________________
Selector_1 (Lambda)             (None, 1, 100)       0           DecoderEmbedding[0][0]
__________________________________________________________________________________________________
Selector_2 (Lambda)             (None, 1, 100)       0           DecoderEmbedding[0][0]
__________________________________________________________________________________________________
Selector_3 (Lambda)             (None, 1, 100)       0           DecoderEmbedding[0][0]
__________________________________________________________________________________________________
Selector_4 (Lambda)             (None, 1, 100)       0           DecoderEmbedding[0][0]
__________________________________________________________________________________________________
Selector_5 (Lambda)             (None, 1, 100)       0           DecoderEmbedding[0][0]
__________________________________________________________________________________________________
Selector_6 (Lambda)             (None, 1, 100)       0           DecoderEmbedding[0][0]
__________________________________________________________________________________________________
Selector_7 (Lambda)             (None, 1, 100)       0           DecoderEmbedding[0][0]
__________________________________________________________________________________________________
Selector_8 (Lambda)             (None, 1, 100)       0           DecoderEmbedding[0][0]
__________________________________________________________________________________________________
Selector_9 (Lambda)             (None, 1, 100)       0           DecoderEmbedding[0][0]
__________________________________________________________________________________________________
Selector_10 (Lambda)            (None, 1, 100)       0           DecoderEmbedding[0][0]
__________________________________________________________________________________________________
Selector_11 (Lambda)            (None, 1, 100)       0           DecoderEmbedding[0][0]
__________________________________________________________________________________________________
Selector_12 (Lambda)            (None, 1, 100)       0           DecoderEmbedding[0][0]
__________________________________________________________________________________________________
Selector_13 (Lambda)            (None, 1, 100)       0           DecoderEmbedding[0][0]
__________________________________________________________________________________________________
Selector_14 (Lambda)            (None, 1, 100)       0           DecoderEmbedding[0][0]
__________________________________________________________________________________________________
Selector_15 (Lambda)            (None, 1, 100)       0           DecoderEmbedding[0][0]
__________________________________________________________________________________________________
Selector_16 (Lambda)            (None, 1, 100)       0           DecoderEmbedding[0][0]
__________________________________________________________________________________________________
Selector_17 (Lambda)            (None, 1, 100)       0           DecoderEmbedding[0][0]
__________________________________________________________________________________________________
Selector_18 (Lambda)            (None, 1, 100)       0           DecoderEmbedding[0][0]
__________________________________________________________________________________________________
Selector_19 (Lambda)            (None, 1, 100)       0           DecoderEmbedding[0][0]
__________________________________________________________________________________________________
Selector_20 (Lambda)            (None, 1, 100)       0           DecoderEmbedding[0][0]
__________________________________________________________________________________________________
Selector_21 (Lambda)            (None, 1, 100)       0           DecoderEmbedding[0][0]
__________________________________________________________________________________________________
Selector_22 (Lambda)            (None, 1, 100)       0           DecoderEmbedding[0][0]
__________________________________________________________________________________________________
Selector_23 (Lambda)            (None, 1, 100)       0           DecoderEmbedding[0][0]
__________________________________________________________________________________________________
Selector_24 (Lambda)            (None, 1, 100)       0           DecoderEmbedding[0][0]
__________________________________________________________________________________________________
Selector_25 (Lambda)            (None, 1, 100)       0           DecoderEmbedding[0][0]
__________________________________________________________________________________________________
Selector_26 (Lambda)            (None, 1, 100)       0           DecoderEmbedding[0][0]
__________________________________________________________________________________________________
Selector_27 (Lambda)            (None, 1, 100)       0           DecoderEmbedding[0][0]
__________________________________________________________________________________________________
Selector_28 (Lambda)            (None, 1, 100)       0           DecoderEmbedding[0][0]
__________________________________________________________________________________________________
Selector_29 (Lambda)            (None, 1, 100)       0           DecoderEmbedding[0][0]
__________________________________________________________________________________________________
Selector_30 (Lambda)            (None, 1, 100)       0           DecoderEmbedding[0][0]
__________________________________________________________________________________________________
Selector_31 (Lambda)            (None, 1, 100)       0           DecoderEmbedding[0][0]
__________________________________________________________________________________________________
Selector_32 (Lambda)            (None, 1, 100)       0           DecoderEmbedding[0][0]
__________________________________________________________________________________________________
Selector_33 (Lambda)            (None, 1, 100)       0           DecoderEmbedding[0][0]
__________________________________________________________________________________________________
Selector_34 (Lambda)            (None, 1, 100)       0           DecoderEmbedding[0][0]
__________________________________________________________________________________________________
Selector_35 (Lambda)            (None, 1, 100)       0           DecoderEmbedding[0][0]
__________________________________________________________________________________________________
Selector_36 (Lambda)            (None, 1, 100)       0           DecoderEmbedding[0][0]
__________________________________________________________________________________________________
Selector_37 (Lambda)            (None, 1, 100)       0           DecoderEmbedding[0][0]
__________________________________________________________________________________________________
Selector_38 (Lambda)            (None, 1, 100)       0           DecoderEmbedding[0][0]
__________________________________________________________________________________________________
Selector_39 (Lambda)            (None, 1, 100)       0           DecoderEmbedding[0][0]
__________________________________________________________________________________________________
dense_1 (Dense)                 (None, 2802)         720114      cu_dnnlstm_2[0][0]
                                                                 cu_dnnlstm_2[1][0]
                                                                 cu_dnnlstm_2[2][0]
                                                                 cu_dnnlstm_2[3][0]
                                                                 cu_dnnlstm_2[4][0]
                                                                 cu_dnnlstm_2[5][0]
…
